…
[[1312    6]
 [   5  387]]
0.9935672514619883
              precision    recall  f1-score   support

     Healthy       1.00      1.00      1.00      1318
       Dying       0.98      0.99      0.99       392

   micro avg       0.99      0.99      0.99      1710
   macro avg       0.25      0.25      0.25      1710
weighted avg       0.99      0.99      0.99      1710

----------------------------------------------------------------
        Layer (type)               Output Shape         Param #
================================================================
            Conv2d-1             [-1, 2, 97, 1]              18
              ReLU-2             [-1, 2, 97, 1]               0
       BatchNorm2d-3             [-1, 2, 97, 1]               4
            Conv2d-4             [-1, 3, 47, 1]              33
              ReLU-5             [-1, 3, 47, 1]               0
       BatchNorm2d-6             [-1, 3, 47, 1]               6
            Conv2d-7             [-1, 5, 22, 1]              80
              ReLU-8             [-1, 5, 22, 1]               0
       BatchNorm2d-9             [-1, 5, 22, 1]              10
           Conv2d-10            [-1, 10, 10, 1]             210
             ReLU-11            [-1, 10, 10, 1]               0
      BatchNorm2d-12            [-1, 10, 10, 1]              20
           Conv2d-13             [-1, 10, 4, 1]             410
             ReLU-14             [-1, 10, 4, 1]               0
      BatchNorm2d-15             [-1, 10, 4, 1]              20
           Linear-16                    [-1, 2]              82
================================================================
Total params: 893
Trainable params: 893
Non-trainable params: 0
----------------------------------------------------------------
Input size (MB): 0.00
Forward/backward pass size (MB): 0.01
Params size (MB): 0.00
Estimated Total Size (MB): 0.02
----------------------------------------------------------------
