…
device is -------------- cuda:0
[[1294   24]
 [ 147  245]]
0.9
              precision    recall  f1-score   support

     Healthy       0.90      0.98      0.94      1318
       Dying       0.91      0.62      0.74       392

   micro avg       0.90      0.90      0.90      1710
   macro avg       0.23      0.20      0.21      1710
weighted avg       0.90      0.90      0.89      1710

----------------------------------------------------------------
        Layer (type)               Output Shape         Param #
================================================================
            Conv2d-1             [-1, 2, 25, 1]               6
              ReLU-2             [-1, 2, 25, 1]               0
       BatchNorm2d-3             [-1, 2, 25, 1]               4
            Conv2d-4             [-1, 3, 12, 1]              21
              ReLU-5             [-1, 3, 12, 1]               0
       BatchNorm2d-6             [-1, 3, 12, 1]               6
            Conv2d-7              [-1, 5, 6, 1]              35
              ReLU-8              [-1, 5, 6, 1]               0
       BatchNorm2d-9              [-1, 5, 6, 1]              10
           Conv2d-10             [-1, 10, 6, 1]              60
             ReLU-11             [-1, 10, 6, 1]               0
      BatchNorm2d-12             [-1, 10, 6, 1]              20
           Conv2d-13             [-1, 10, 6, 1]             110
             ReLU-14             [-1, 10, 6, 1]               0
      BatchNorm2d-15             [-1, 10, 6, 1]              20
           Linear-16                    [-1, 2]             122
================================================================
Total params: 414
Trainable params: 414
Non-trainable params: 0
----------------------------------------------------------------
Input size (MB): 0.00
Forward/backward pass size (MB): 0.01
Params size (MB): 0.00
Estimated Total Size (MB): 0.01
----------------------------------------------------------------
