…
         VFb       0.39      0.76      0.51       289
         VFt       0.00      0.00      0.00        95
         VPD       0.50      0.01      0.01       158
          VT       0.26      0.25      0.25       190

   micro avg       0.37      0.37      0.37      1444
   macro avg       0.25      0.25      0.19      1444
weighted avg       0.32      0.37      0.28      1444

----------------------------------------------------------------
        Layer (type)               Output Shape         Param #
================================================================
            Conv2d-1            [-1, 2, 623, 1]              14
              ReLU-2            [-1, 2, 623, 1]               0
       BatchNorm2d-3            [-1, 2, 623, 1]               4
            Conv2d-4            [-1, 3, 310, 1]              33
              ReLU-5            [-1, 3, 310, 1]               0
       BatchNorm2d-6            [-1, 3, 310, 1]               6
            Conv2d-7            [-1, 5, 154, 1]              65
              ReLU-8            [-1, 5, 154, 1]               0
       BatchNorm2d-9            [-1, 5, 154, 1]              10
           Conv2d-10            [-1, 10, 76, 1]             210
             ReLU-11            [-1, 10, 76, 1]               0
      BatchNorm2d-12            [-1, 10, 76, 1]              20
           Conv2d-13            [-1, 10, 37, 1]             410
             ReLU-14            [-1, 10, 37, 1]               0
      BatchNorm2d-15            [-1, 10, 37, 1]              20
           Linear-16                    [-1, 8]           2,968
================================================================
Total params: 3,760
Trainable params: 3,760
Non-trainable params: 0
----------------------------------------------------------------
Input size (MB): 0.00
Forward/backward pass size (MB): 0.09
Params size (MB): 0.01
Estimated Total Size (MB): 0.11
----------------------------------------------------------------
device is -------------- cuda
…
