…
[[2573   67]
 [ 260 1745]]
0.9296017222820236
              precision    recall  f1-score   support

     Healthy       0.91      0.97      0.94      2640
       Dying       0.96      0.87      0.91      2005

   micro avg       0.93      0.93      0.93      4645
   macro avg       0.23      0.23      0.23      4645
weighted avg       0.93      0.93      0.93      4645

----------------------------------------------------------------
        Layer (type)               Output Shape         Param #
================================================================
            Conv2d-1             [-1, 2, 97, 1]              18
              ReLU-2             [-1, 2, 97, 1]               0
       BatchNorm2d-3             [-1, 2, 97, 1]               4
            Conv2d-4             [-1, 3, 47, 1]              33
              ReLU-5             [-1, 3, 47, 1]               0
       BatchNorm2d-6             [-1, 3, 47, 1]               6
            Conv2d-7             [-1, 5, 22, 1]              80
              ReLU-8             [-1, 5, 22, 1]               0
       BatchNorm2d-9             [-1, 5, 22, 1]              10
           Conv2d-10            [-1, 10, 10, 1]             210
             ReLU-11            [-1, 10, 10, 1]               0
      BatchNorm2d-12            [-1, 10, 10, 1]              20
           Conv2d-13             [-1, 10, 4, 1]             410
             ReLU-14             [-1, 10, 4, 1]               0
      BatchNorm2d-15             [-1, 10, 4, 1]              20
           Linear-16                    [-1, 2]              82
================================================================
Total params: 893
Trainable params: 893
Non-trainable params: 0
----------------------------------------------------------------
Input size (MB): 0.00
Forward/backward pass size (MB): 0.01
Params size (MB): 0.00
Estimated Total Size (MB): 0.02
----------------------------------------------------------------
device is -------------- cuda
…
