…
device is -------------- cuda:0
[[3107  129]
 [  71 2318]]
0.9644444444444444
              precision    recall  f1-score   support

     Healthy       0.98      0.96      0.97      3236
       Dying       0.95      0.97      0.96      2389

   micro avg       0.96      0.96      0.96      5625
   macro avg       0.24      0.24      0.24      5625
weighted avg       0.96      0.96      0.96      5625

----------------------------------------------------------------
        Layer (type)               Output Shape         Param #
================================================================
            Conv2d-1            [-1, 2, 623, 1]              14
              ReLU-2            [-1, 2, 623, 1]               0
       BatchNorm2d-3            [-1, 2, 623, 1]               4
            Conv2d-4            [-1, 3, 310, 1]              33
              ReLU-5            [-1, 3, 310, 1]               0
       BatchNorm2d-6            [-1, 3, 310, 1]               6
            Conv2d-7            [-1, 5, 154, 1]              65
              ReLU-8            [-1, 5, 154, 1]               0
       BatchNorm2d-9            [-1, 5, 154, 1]              10
           Conv2d-10            [-1, 10, 76, 1]             210
             ReLU-11            [-1, 10, 76, 1]               0
      BatchNorm2d-12            [-1, 10, 76, 1]              20
           Conv2d-13            [-1, 10, 37, 1]             410
             ReLU-14            [-1, 10, 37, 1]               0
      BatchNorm2d-15            [-1, 10, 37, 1]              20
           Linear-16                    [-1, 2]             742
================================================================
Total params: 1,534
Trainable params: 1,534
Non-trainable params: 0
----------------------------------------------------------------
Input size (MB): 0.00
Forward/backward pass size (MB): 0.09
Params size (MB): 0.01
Estimated Total Size (MB): 0.10
----------------------------------------------------------------
-
device is -------------- cuda
…
