…
[[1302   16]
 [  54  338]]
0.9590643274853801
              precision    recall  f1-score   support

     Healthy       0.96      0.99      0.97      1318
       Dying       0.95      0.86      0.91       392

   micro avg       0.96      0.96      0.96      1710
   macro avg       0.24      0.23      0.23      1710
weighted avg       0.96      0.96      0.96      1710

----------------------------------------------------------------
        Layer (type)               Output Shape         Param #
================================================================
            Conv2d-1             [-1, 2, 49, 1]              10
              ReLU-2             [-1, 2, 49, 1]               0
       BatchNorm2d-3             [-1, 2, 49, 1]               4
            Conv2d-4             [-1, 3, 24, 1]              21
              ReLU-5             [-1, 3, 24, 1]               0
       BatchNorm2d-6             [-1, 3, 24, 1]               6
            Conv2d-7             [-1, 5, 12, 1]              35
              ReLU-8             [-1, 5, 12, 1]               0
       BatchNorm2d-9             [-1, 5, 12, 1]              10
           Conv2d-10            [-1, 10, 11, 1]             110
             ReLU-11            [-1, 10, 11, 1]               0
      BatchNorm2d-12            [-1, 10, 11, 1]              20
           Conv2d-13            [-1, 10, 10, 1]             210
             ReLU-14            [-1, 10, 10, 1]               0
      BatchNorm2d-15            [-1, 10, 10, 1]              20
           Linear-16                    [-1, 2]             202
================================================================
Total params: 648
Trainable params: 648
Non-trainable params: 0
----------------------------------------------------------------
Input size (MB): 0.00
Forward/backward pass size (MB): 0.01
Params size (MB): 0.00
Estimated Total Size (MB): 0.01
----------------------------------------------------------------
