device is -------------- cuda
IEGMNetSimple5a500(
  (conv1): Sequential(
    (0): Conv2d(1, 2, kernel_size=(6, 1), stride=(2, 1))
    (1): ReLU(inplace=True)
    (2): BatchNorm2d(2, eps=1e-05, momentum=0.1, affine=True, track_running_stats=True)
  )
  (conv2): Sequential(
    (0): Conv2d(2, 3, kernel_size=(6, 1), stride=(2, 1))
    (1): ReLU(inplace=True)
    (2): BatchNorm2d(3, eps=1e-05, momentum=0.1, affine=True, track_running_stats=True)
  )
  (conv3): Sequential(
    (0): Conv2d(3, 5, kernel_size=(4, 1), stride=(2, 1))
    (1): ReLU(inplace=True)
    (2): BatchNorm2d(5, eps=1e-05, momentum=0.1, affine=True, track_running_stats=True)
  )
  (conv4): Sequential(
    (0): Conv2d(5, 10, kernel_size=(4, 1), stride=(2, 1))
    (1): ReLU(inplace=True)
    (2): BatchNorm2d(10, eps=1e-05, momentum=0.1, affine=True, track_running_stats=True)
  )
  (conv5): Sequential(
    (0): Conv2d(10, 10, kernel_size=(3, 1), stride=(2, 1))
    (1): ReLU(inplace=True)
    (2): BatchNorm2d(10, eps=1e-05, momentum=0.1, affine=True, track_running_stats=True)
  )
  (linear): Linear(in_features=140, out_features=2, bias=True)
)
conv1.0.weight torch.Size([2, 1, 6, 1])
conv1.0.bias torch.Size([2])
conv1.2.weight torch.Size([2])
conv1.2.bias torch.Size([2])
conv2.0.weight torch.Size([3, 2, 6, 1])
conv2.0.bias torch.Size([3])
conv2.2.weight torch.Size([3])
conv2.2.bias torch.Size([3])
conv3.0.weight torch.Size([5, 3, 4, 1])
conv3.0.bias torch.Size([5])
conv3.2.weight torch.Size([5])
…
